…
6502037,"user_tz":180,"elapsed":261,"user":{"displayName":"Marcelo","photoUrl":"https://lh3.googleusercontent.com/a-/AOh14GgUmBLzXCWLJ94KBi4qMvQJQwv4xJjH-Q79iAdCJA=s64","userId":"16821328343641820731"}},"outputId":"d202a1c9-b84e-4164-ffa9-94633a764edd"},"execution_count":23,"outputs":[{"output_type":"stream","name":"stdout","text":["Model: \"sequential\"\n","_________________________________________________________________\n"," Layer (type)                Output Shape              Param #   \n","=================================================================\n"," conv2d (Conv2D)             (None, 26, 26, 32)        320       \n","                                                                 \n"," conv2d_1 (Conv2D)           (None, 24, 24, 64)        18496     \n","                                                                 \n"," max_pooling2d (MaxPooling2D  (None, 12, 12, 64)       0         \n"," )                                                               \n","                                                                 \n"," dropout (Dropout)           (None, 12, 12, 64)        0         \n","                                                                 \n"," flatten (Flatten)           (None, 9216)              0         \n","                                                                 \n"," dense (Dense)               (None, 128)               1179776   \n","                                                                 \n"," dropout_1 (Dropout)         (None, 128)               0         \n","                                                                 \n"," dense_1 (Dense)             (None, 10)                1290      \n","                                                                 \n","=================================================================\n","Total params: 1,199,882\n","Trainable params: 1,199,882\n","Non-trainable params: 0\n","_________________________________________________________________\n"]}]},{"cell_type":"code","source":["model.compile(loss='sparse_categorical_crossentropy',opti
…
