…
6057840,"user_tz":180,"elapsed":630,"user":{"displayName":"Marcelo","photoUrl":"https://lh3.googleusercontent.com/a-/AOh14GgUmBLzXCWLJ94KBi4qMvQJQwv4xJjH-Q79iAdCJA=s64","userId":"16821328343641820731"}},"outputId":"75a5ca5c-8aab-4f93-aa8c-9083cbf13534"},"execution_count":51,"outputs":[{"output_type":"stream","name":"stdout","text":["Model: \"cancer_cnn\"\n","_________________________________________________________________\n"," Layer (type)                Output Shape              Param #   \n","=================================================================\n"," conv1d_11 (Conv1D)          (None, 29, 32)            96        \n","                                                                 \n"," batch_normalization_11 (Bat  (None, 29, 32)           128       \n"," chNormalization)                                                \n","                                                                 \n"," dropout_15 (Dropout)        (None, 29, 32)            0         \n","                                                                 \n"," conv1d_12 (Conv1D)          (None, 28, 32)            2080      \n","                                                                 \n"," batch_normalization_12 (Bat  (None, 28, 32)           128       \n"," chNormalization)                                                \n","                                                                 \n"," dropout_16 (Dropout)        (None, 28, 32)            0         \n","                                                                 \n"," flatten_5 (Flatten)         (None, 896)               0         \n","                                                                 \n"," dense_10 (Dense)            (None, 64)                57408     \n","                                                                 \n"," dropout_17 (Dropout)        (None, 64)                0         \n","                                                                 \n"," dense_11 (Dense)            (None, 1)                 65        \n","                                                                 \n","=================================================================\n","Total params: 59,905\n","Trainable params: 59,777\n","Non-trainable params: 128\n","_________________________________________________________________\n"]}]},{"cell_type":"code","source":["model.compile(optimizer=Adam(lr=.00005),loss='binary_crosse
…
