…
"base_uri":"https://localhost:8080/"},"id":"0oZGY4bQoi-7","executionInfo":{"status":"ok","timestamp":1649045632361,"user_tz":180,"elapsed":624,"user":{"displayName":"Marcelo","userId":"16821328343641820731"}},"outputId":"185946fd-9a9a-4e92-ebcb-da610c810b28"},"execution_count":58,"outputs":[{"output_type":"stream","name":"stdout","text":["Model: \"LSTM\"\n","_________________________________________________________________\n"," Layer (type)                Output Shape              Param #   \n","=================================================================\n"," lstm_12 (LSTM)              (None, 60, 100)           42400     \n","                                                                 \n"," dropout_12 (Dropout)        (None, 60, 100)           0         \n","                                                                 \n"," lstm_13 (LSTM)              (None, 60, 120)           106080    \n","                                                                 \n"," dropout_13 (Dropout)        (None, 60, 120)           0         \n","                                                                 \n"," lstm_14 (LSTM)              (None, 60, 160)           179840    \n","                                                                 \n"," dropout_14 (Dropout)        (None, 60, 160)           0         \n","                                                                 \n"," lstm_15 (LSTM)              (None, 240)               384960    \n","                                                                 \n"," dropout_15 (Dropout)        (None, 240)               0         \n","                                                                 \n"," dense_3 (Dense)             (None, 1)                 241       \n","                                                                 \n","=================================================================\n","Total params: 713,521\n","Trainable params: 713,521\n","Non-trainable params: 0\n","_________________________________________________________________\n"]}]},{"cell_type":"code","source":["model.compile(optimizer='adam',loss='mean_squared_error')"],
…
