…
6399657,"user_tz":180,"elapsed":611,"user":{"displayName":"Marcelo","photoUrl":"https://lh3.googleusercontent.com/a-/AOh14GgUmBLzXCWLJ94KBi4qMvQJQwv4xJjH-Q79iAdCJA=s64","userId":"16821328343641820731"}},"outputId":"c81e5166-65a0-4917-b54b-eb3f8734b048"},"execution_count":51,"outputs":[{"output_type":"stream","name":"stdout","text":["Model: \"sequential\"\n","_________________________________________________________________\n"," Layer (type)                Output Shape              Param #   \n","=================================================================\n"," conv1d (Conv1D)             (None, 249, 32)           128       \n","                                                                 \n"," batch_normalization (BatchN  (None, 249, 32)          128       \n"," ormalization)                                                   \n","                                                                 \n"," max_pooling1d (MaxPooling1D  (None, 124, 32)          0         \n"," )                                                               \n","                                                                 \n"," dropout (Dropout)           (None, 124, 32)           0         \n","                                                                 \n"," conv1d_1 (Conv1D)           (None, 122, 64)           6208      \n","                                                                 \n"," batch_normalization_1 (Batc  (None, 122, 64)          256       \n"," hNormalization)                                                 \n","                                                                 \n"," max_pooling1d_1 (MaxPooling  (None, 61, 64)           0         \n"," 1D)                                                             \n","                                                                 \n"," dropout_1 (Dropout)         (None, 61, 64)            0         \n","                                                                 \n"," conv1d_2 (Conv1D)           (None, 59, 128)           24704     \n","                                                                 \n"," batch_normalization_2 (Batc  (None, 59, 128)          512       \n"," hNormalization)                                                 \n","                                                                 \n"," max_pooling1d_2 (MaxPooling  (None, 29, 128)          0         \n"," 1D)                                                             \n","                                                                 \n"," dropout_2 (Dropout)         (None, 29, 128)           0         \n","                                                                 \n"," flatten (Flatten)           (None, 3712)              0         \n","                                                                 \n"," dense (Dense)               (None, 256)               950528    \n","                                                                 \n"," dropout_3 (Dropout)         (None, 256)               0         \n","                                                                 \n"," dense_1 (Dense)             (None, 1)                 257       \n","                                                                 \n","=================================================================\n","Total params: 982,721\n","Trainable params: 982,273\n","Non-trainable params: 448\n","_________________________________________________________________\n"]}]},{"cell_type":"code","source":["model.compile(optimizer=Adam(lr=.00005),loss='binary_cross
…
